mush_rec_model.pth (torch, 425707 bytes, 26 tensors)

cnn1.weight f4 [12, 3, 5, 5]
-0.014912837 0.11176527 -0.0070453216 0.080282025 0.0836702 0.103587516 0.045719326 0.11894475
0.034670275 0.13960424 0.12161208 0.10845277 0.08323006 0.069319785 0.032254085 0.15142521
0.04994113 0.014642309 -0.067236386 0.023457643 -0.012973662 0.01653164 0.048044257 -0.005470192
-0.037442848 -0.06865948 -0.06998651 0.009739361 0.05277284 0.07420825 0.06414429 0.068266355
0.10152858 -0.07428939 -0.035683993 -0.095078334 -0.053142726 -0.09927468 0.04571074 -0.03328285
-0.08257533 -0.04070371 -0.06942013 -0.058754936 0.08369969 0.037865452 0.03501284 -0.016910236
-0.10522301 0.10492231 -0.06145739 0.058395624 -0.073578894 0.10697746 -0.046136305 -0.086480685
0.012697481 0.10762312 -0.0039996775 -0.108715296 0.030319493 0.007922063 -0.053812362 0.054617632
0.10868343 0.13091873 -0.06680166 -0.028475087 0.09959863 0.036268827 -0.045886878 -0.055147164
-0.0739264 -0.025824534 -0.030088775 -0.007799901 0.052238237 -0.12105942 -0.101773106 0.061728925
0.037359938 0.08183839 0.07136159 -0.146165 -0.015160072 -0.11337853 -0.13493866 -0.092452236
0.069373004 -0.011402666 -0.1173743 0.062925324 0.009019377 -0.060855433 -0.010320778 -0.021182649
-0.07165595 0.0532153 0.027808836 0.018197058 0.078907564 -0.05834408 -0.044150274 0.061428927
0.04652206 -0.04307503 -0.04815214 0.09437953 -0.093715526 -0.021057868 0.01763547 0.03809906
0.08166287 -0.10419238 -0.08411059 0.06515679 -0.11303886 -0.09999562 -0.06375329 0.0795442
-0.070855185 0.08679256 -0.05343064 0.03333728 0.049355544 -0.12616846 -0.12481495 -0.04736855
-0.03712928 0.050755844 -0.04385661 0.06830982 -0.0013172287 0.029509582 -0.07494016 -0.035522733
-0.07096309 0.07883809 0.09062562 -0.0078675905 0.043780867 -0.11207861 0.094357096 0.029513324
-0.07550899 0.08786877 -0.0060274806 -0.067646965 0.09771786 0.016263243 0.10267646 -0.033568557
-0.0032612318 -0.026008388 -0.02232221 0.020646984 0.041580256 -0.066317834 0.010117741 0.10528157
0.044270594 0.048317596 -0.061498728 -0.08168233 0.06959854 -0.120638855 -0.017649025 0.027512949
0.04058328 0.10119745 0.10588023 -0.092427805 0.07234101 -0.098706454 -0.0078026066 -0.121038444
-0.039502636 0.090654686 0.0008679165 0.048588004 -0.058823593 0.07985886 -0.048070677 0.107281946
-0.10559175 -0.071613535 -0.11946463 0.08290457 0.096128136 0.09004999 -0.04381121 0.01838
0.061001558 -0.025104767 -0.049801152 0.060035832 0.10587076 -0.0944103 0.055338442 0.08992863
0.08088722 -0.0967631 0.09941369 -0.06701269 -0.05053799 -0.073444545 -0.0029173368 0.056077905
0.008377851 -0.085041076 0.055203162 -0.11294842 -0.12460714 -0.043196023 0.047689267 -0.08939341
-0.0919272 0.07994195 -0.012560638 -0.108830765 -0.00729416 -0.07219138 -0.1283199 0.072806336
-0.045877036 0.033000387 -0.088489324 -0.033197343 -0.08936499 -0.0052919565 -0.050913125 0.08305201
-0.063101076 0.073214136 -0.035841778 -0.025554147 0.070270166 0.09275411 -0.009664896 0.05475262
-0.09372067 0.075819276 0.06569422 -0.100907855 -0.11283252 -0.091308035 0.038265504 -0.09293522
-0.053160932 0.011376206 0.0047339764 -0.07212121 0.025306832 -0.011603673 -0.08808146 0.12241135
00000000: f954 74bc 31e5 e43d 71dc e6bb e76a a43d
00000010: 485b ab3d b125 d43d 3044 3b3d 4e99 f33d
00000020: 6b02 0e3d 6af4 0e3e c10f f93d 7c1c de3d
00000030: 8674 aa3d 88f7 8d3d dc1c 043d 360f 1b3e
00000040: 128f 4c3d 4ce6 6f3c 3bb3 89bd 3e2a c03c
00000050: 7b8f 54bc 5d6d 873c 0eca 443d 4c3f b3bb
00000060: ac5d 19bd 579d 8cbd 1655 8fbd d791 1f3c
00000070: 5528 583d 7ffa 973d 155e 833d 3bcf 8b3d
00000080: 37ee cf3d 0925 98bd 6129 12bd 6eb8 c2bd
00000090: 30ac 59bd 8650 cbbd 2f3b 3b3d 9953 08bd
000000a0: 411d a9bd efb8 26bd 242c 8ebd 04a9 70bd
000000b0: be6a ab3d ce18 1b3d a069 0f3d 5687 8abc
000000c0: 297f d7bd 82e1 d63d bfba 7bbd 4030 6f3d
000000d0: 88b0 96bd 0017 db3d 6cf9 3cbd c91c b1bd
000000e0: 1809 503c 8369 dc3d ba0f 83bb 20a6 debd
000000f0: 9660 f83c 8acb 013c 5a6a 5cbd bdb6 5f3d
00000100: 6b95 de3d 8f0f 063e 4fcf 88bd 9644 e9bc
00000110: 5efa cb3d 9f8e 143d e1f3 3bbd fee1 61bd
00000120: b966 97bd f98d d3bc bc7c f6bc 5096 ffbb
00000130: c3f7 553d 00ee f7bd 6b6e d0bd 78d7 7c3d
00000140: bc06 193d e39a a73d 0626 923d 47ac 15be
00000150: f361 78bc 0133 e8bd 5c2d 0abe 9957 bdbd
00000160: 6f13 8e3d 3fd2 3abc f061 f0bd fede 803d
00000170: 02c6 133c 8c43 79bd 7b18 29bc 3c87 adbc
00000180: 5bc0 92bd 49f8 593d 5bcf e33c ff11 953c
00000190: 4a9a a13d 34fa 6ebd ebd6 34bd e69c 7b3d
000001a0: ea8d 3e3d 716f 30bd 2e3b 45bd 0e4a c13d
000001b0: eded bfbd 8d81 acbc 4378 903c c30d 1c3d
000001c0: dd3e a73d d162 d5bd 2c42 acbd ec70 853d
000001d0: eb80 e7bd 81ca ccbd 1691 82bd 12e8 a23d
000001e0: 861c 91bd 4cc0 b13d 16da 5abd ac8c 083d
000001f0: 0a29 4a3d 4e32 01be fb9e ffbd 8605 42bd
00000200: df14 18bd 5ce5 4f3d fda2 33bd 05e6 8b3d
00000210: dca6 acba 14be f13c 3a7a 99bd 4980 11bd
00000220: 1955 91bd dd75 a13d ed99 b93d 11e7 00bc
00000230: 9153 333d 7889 e5bd 4b3e c13d edc5 f13c
00000240: 75a4 9abd 8bf4 b33d 2c82 c5bb 7e8a 8abd
00000250: 4d20 c83d 7e3a 853c 0948 d23d 2f7f 09bd
00000260: 64ba 55bb 8b0f d5bc 11dd b6bc dd23 a93c
00000270: 0f50 2a3d a5d1 87bd e2c4 253c dd9d d73d
00000280: 1555 353d ace8 453d 17e6 7bbd 1149 a7bd
00000290: ae89 8e3d 8111 f7bd b094 90bc d662 e13c
000002a0: a73a 263d 9c40 cf3d bcd7 d83d ca4a bdbd
000002b0: 8627 943d 9c26 cabd 02ad ffbb 01e3 f7bd
000002c0: 84cd 21bd 2aa9 b93d e484 633a 3704 473d
000002d0: 02f1 70bd 0b8d a33d c2e5 44bd a3b6 db3d
000002e0: 7d40 d8bd 1eaa 92bd dfa9 f4bd dfc9 a93d
000002f0: d4de c43d 216c b83d 6273 33bd a791 963c
00000300: c5dc 793d 83a8 cdbc 4bfc 4bbd 22e8 753d
00000310: c5d2 d83d 305a c1bd 90aa 623d 802c b83d
00000320: 33a8 a53d bb2b c6bd 6899 cb3d f33d 89bd
00000330: ec00 4fbd 186a 96bd ca30 3fbb f2b1 653d
00000340: 4143 093c 042a aebd b61c 623d 8051 e7bd
00000350: 0732 ffbd 50ee 30bd d255 433d e413 b7bd
00000360: 5444 bcbd 9bb8 a33d 22cb 4dbc aae2 debd
00000370: d903 efbb 13d9 93bd 4b66 03be 7d1b 953d
00000380: 8fe9 3bbd 6a2b 073d e439 b5bd f0f9 07bd
00000390: fe04 b7bd 2668 adbb 488a 50bd 2c17 aa3d
000003a0: 233b 81bd 4bf1 953d d4ce 12bd ee56 d1bc
000003b0: cee9 8f3d def5 bd3d 8359 1ebc 4944 603d
000003c0: 9ff0 bfbd 2347 9b3d b18a 863d c7a8 cebd
000003d0: bc14 e7bd b5ff babd 4abc 1c3d d254 bebd
000003e0: 47bf 59bd 4463 3a3c 791f 9b3b 49b4 93bd
000003f0: 4650 cf3c 551d 3ebc 0d64 b4bd cdb2 fa3d

cnn1.bias f4 [12]
0.00019040679 0.00013813478 -0.0017799223 0.00055460935 4.5517576e-05 0.0005270606 -4.358477e-05 0.0071739582
0.0017035789 0.0025454978 -6.089745e-05 0.002055182
00000000: efa7 4739 46d8 1039 484c e9ba 3463 113a
00000010: 20ea 3e38 702a 0a3a cace 36b8 8613 eb3b
00000020: 9f4a df3a 5ed2 263b 246c 7fb8 3bb0 063b

bn1.weight f4 [12]
1.001073 0.9525022 0.9769205 0.9826977 0.9682229 1.0137004 0.9778588 1.0335709
1.0084451 0.96158344 0.9735017 1.0332785
00000000: 2923 803f 2fd7 733f 7617 7a3f 1492 7b3f
00000010: 75dd 773f efc0 813f f454 7a3f 0d4c 843f
00000020: bb14 813f 552a 763f 6837 793f 7842 843f

bn1.bias f4 [12]
-0.00014310198 -0.03753951 -0.015964849 -0.08675515 -0.022930747 0.028313378 0.009197568 -0.06598639
-0.015821258 -0.009125315 -0.027057678 -0.13998379
00000000: a50d 16b9 07c3 19bd b7c8 82bc afac b1bd
00000010: 43d9 bbbc 75f1 e73c 65b1 163c df23 87bd
00000020: 959b 81bc 5882 15bc 10a8 ddbc e957 0fbe

bn1.running_mean f4 [12]
-0.15855199 0.16428682 0.18478927 -0.105718225 -0.1674582 0.10810356 0.47754678 -0.20330676
-0.38208488 -0.010333291 0.27673882 0.011650114
00000000: 745b 22be ce3a 283e 6639 3d3e cc82 d8bd
00000010: 2a7a 2bbe 6665 dd3d 0381 f43e a62f 50be
00000020: a1a0 c3be f74c 29bc b6b0 8d3e 1fe0 3e3c

bn1.running_var f4 [12]
0.23244062 0.102609314 0.03258255 0.055816617 0.055341974 0.10818406 0.27721712 0.0553148
0.21072876 0.02919228 0.14310946 0.08323508
00000000: ea04 6e3e d524 d23d 4875 053d f79f 643d
00000010: 44ae 623d 9b8f dd3d 67ef 8d3e c691 623d
00000020: 48c9 573e a624 ef3c 498b 123e 2777 aa3d

cnn2.weight f4 [12, 12, 5, 5]
0.05851528 -0.003163037 0.02090938 0.028380571 0.0303691 0.04800287 -0.01158503 -0.0025851624
-0.019748699 -0.0005575195 0.04751542 0.009553238 -0.01735763 -0.048956893 0.020717649 -0.048828486
0.02353524 0.046080533 -0.015500238 -0.0066341246 0.06051706 -0.047091316 0.042274144 -0.063144565
0.012491136 -0.0319019 -0.05969419 -0.010345924 0.02292681 0.029115165 -0.0363476 -0.053181216
0.010708281 -0.02758012 -0.04477986 -0.008242943 -0.015494064 -0.024937447 0.026363114 0.037634358
-0.015810419 0.022271065 0.031050038 -0.033621468 0.050989218 0.04292065 -0.027480949 -0.012987836
0.02880869 -0.054388873 0.03189613 0.06290878 0.03943892 0.046543375 0.006912132 0.05895561
0.061627187 0.046784807 0.039029762 -0.013339875 -0.0137019865 0.030808894 0.039332896 0.027794104
-0.030683998 -0.0093296645 0.01786459 -0.0049549 0.024551038 -0.02204678 0.05879434 0.047834516
-0.03532727 -0.045217115 0.047367547 -0.03169795 -0.026447378 0.05151832 0.047842965 0.03393775
-0.022862319 0.049603213 0.014920657 0.023479143 -0.037877478 -0.0090466505 0.023497934 -0.032111507
-0.02521741 0.017551003 0.030491205 0.07126341 -0.0013886858 0.031233592 0.028954796 0.034634445
0.04254967 0.031543992 0.013139046 -0.0019396604 -0.014693577 -0.019426007 0.011665837 0.053478934
-0.03662086 -0.034102295 -0.017368864 -0.040786922 -0.0022056263 0.0063856603 -0.030386724 -0.01869486
-0.039167624 0.043812744 0.050102253 -0.045025453 -0.001722552 0.0067464975 0.035333056 0.008514177
0.03916827 -0.03612747 0.033684015 -0.027374804 -0.025642186 -0.05814012 -0.011861909 0.03582872
0.0314485 0.012504351 -0.009720344 -0.04021036 0.060100563 0.058116786 0.048107486 0.0061015086
-0.020703945 -0.0071560587 -0.023535272 0.050302487 0.05292132 -0.039191294 0.033354837 0.041465707
-0.027966484 0.038178854 0.0353265 0.05121405 -0.019398687 -0.02491803 -0.0227883 -0.013164261
0.049111795 -0.04396734 0.021640182 0.049689732 0.027365068 -0.037301607 -0.009607809 0.053649906
0.042789023 0.049874637 -0.0011382763 0.020682693 -0.013075223 0.015663102 0.038921982 -0.043592297
0.048495006 -0.031847607 -0.045985557 -0.032948546 0.044683814 0.0040760036 0.054142796 0.03145046
0.02823235 0.06905428 -0.021946931 0.03246065 0.06422975 0.021997623 0.059976034 0.061564945
0.020121008 -0.018970136 -0.027029904 -0.040107496 0.05653153 0.023168718 -0.017086469 0.069982804
0.020501882 -0.01982903 0.025922826 0.0056496034 0.013877508 -0.009197539 -0.012677116 0.023117041
0.053028766 0.05349519 -0.022675395 -0.07156979 -0.057832923 0.058190227 -0.010812137 -0.02036036
0.036493156 -0.072622955 -0.03886833 -0.0005853556 -0.06499743 0.02553082 -0.06770847 0.007864693
0.028406436 -0.057997685 -0.025999906 -0.070626386 -0.036916047 0.038184524 0.02052798 0.036996234
0.023323921 0.030262705 -0.006524078 0.011310071 -0.03934534 0.042770155 -0.023119228 -0.044747937
0.032791216 0.048942413 -0.027956309 -0.040795386 0.0555099 0.04398772 -0.006503398 0.0480698
-0.042543467 -0.017755644 -0.029960476 0.024293983 0.017708397 0.01558616 0.017289024 -0.015008097
0.012877051 -0.03539396 0.0488348 0.017832411 -0.031691685 0.024598539 -0.0016822704 -0.03698972
00000000: b8ad 6f3d f44a 4fbb 264a ab3c 5f7e e83c
00000010: 9ec8 f83c a89e 443d 23cf 3dbc d46b 29bb
00000020: 06c8 a1bc 8026 12ba 879f 423d 2f85 1c3c
00000030: 9731 8ebc 0687 48bd 0fb8 a93c 6100 48bd
00000040: facc c03c f1be 3c3d b6f4 7dbc 1263 d9bb
00000050: bde0 773d d3e2 40bd a727 2d3d f051 81bd
00000060: 9fa7 4c3c 91ab 02bd e581 74bd f381 29bc
00000070: 01d1 bb3c ed82 ee3c 39e1 14bd 8cd4 59bd
00000080: c971 2f3c b4ef e1bc 166b 37bd 690d 07bc
00000090: d1da 7dbc 9e49 ccbc 75f7 d73c 7c26 1a3d
000000a0: da84 81bc cf71 b63c a65c fe3c aab6 09bd
000000b0: 12da 503d 90cd 2f3d ba1f e1bc efca 54bc
000000c0: 3400 ec3c dec6 5ebd 84a5 023d 52d6 803d
000000d0: b48a 213d 44a4 3e3d 2a7f e23b 707b 713d
000000e0: ca6c 7c3d 6da1 3f3d acdd 1f3d 7e8f 5abc
000000f0: 4c7e 60bc ef62 fc3c 881b 213d 76b0 e33c
00000100: 025d fbbc 73db 18bc c358 923c b75c a2bb
00000110: 421f c93c 739b b4bc 55d2 703d 20ee 433d
00000120: 54b3 10bd 9535 39bd 7904 423d b6d5 01bd
00000130: 2ca8 d8bc e004 533d fcf6 433d 4f02 0b3d
00000140: c249 bbbc bd2c 4b3d c575 743c 5557 c03c
00000150: 6a25 1bbd 6738 14bc bd7e c03c 5b87 03bd
00000160: be94 cebc 1fc7 8f3c b1c8 f93c 8df2 913d
00000170: 9004 b6ba 97dd ff3c 9c32 ed3c d9dc 0d3d
00000180: 9048 2e3d 4634 013d 2745 573c 343c feba
00000190: 54bd 70bc 4a23 9fbc 1122 3f3c ba0c 5b3d
000001a0: c1ff 15bd d9ae 0bbd 2649 8ebc 3010 27bd
000001b0: 458c 10bb cd3e d13b 94ed f8bc f725 99bc
000001c0: 3b6e 20bd fe74 333d 0538 4d3d 9c6c 38bd
000001d0: 41c7 e1ba b911 dd3b 65b9 103d 0c7f 0b3c
000001e0: e86e 203d 66fa 13bd 40f8 093d 2041 e0bc
000001f0: 900f d2bc 5624 6ebd 7458 42bc 23c1 123d
00000200: 24d0 003d 0ddf 4c3c 1442 1fbc 9eb3 24bd
00000210: 022c 763d de0b 6e3d 5b0c 453d 2aef c73b
00000220: 529b a9bc 5f7d eabb 0bcd c0bc fb09 4e3d
00000230: 07c4 583d 0d87 20bd 159f 083d f2d7 293d
00000240: f819 e5bc 6e61 1c3d 85b2 103d d3c5 513d
00000250: ffe9 9ebc e520 ccbc 87ae babc eaae 57bc
00000260: 7329 493d 1917 34bd c046 b13c 7687 4b3d
00000270: b52c e03c 92c9 18bd 126a 1dbc 01c0 5b3d
00000280: 8b43 2f3d 5949 4c3d 3732 95ba c06e a93c
00000290: 7639 56bc e84f 803c a86c 1f3d d68d 32bd
000002a0: b3a2 463d a372 02bd 5a5b 3cbd 0ef5 06bd
000002b0: 6006 373d ff8f 853b d6c4 5d3d 33d2 003d
000002c0: 8747 e73c 556c 8d3d 0dca b3bc 75f5 043d
000002d0: e38a 833d 5c34 b43c 6ea9 753d 862b 7c3d
000002e0: d0d4 a43c 4267 9bbc d16d ddbc c247 24bd
000002f0: 9b8d 673d 53cc bd3c ecf8 8bbc 2553 8f3d
00000300: 90f3 a73c 7d70 a2bc 1b5c d43c 4f20 b93b
00000310: 7d5e 633c 46b1 16bc aeb3 4fbc f35f bd3c
00000320: b134 593d c61d 5b3d c0c1 b9bc 2f93 92bd
00000330: 37e2 6cbd e058 6e3d 6425 31bc c5ca a6bc
00000340: d979 153d 58bb 94bd 6634 1fbd 8d72 19ba
00000350: 5f1d 85bd 0326 d13c bdaa 8abd eada 003c
00000360: 9db4 e83c fb8e 6dbd c1fd d4bc 91a4 90bd
00000370: 4835 17bd 6067 1c3d 4b2a a83c 5d89 173d
00000380: cf11 bf3c 7ee9 f73c efc7 d5bb e04d 393c
00000390: 9428 21bd c22f 2f3d 8964 bdbc 9d49 37bd
000003a0: 1550 063d d777 483d a104 e5bc 1019 27bd
000003b0: 595e 633d 782c 343d 751a d5bb d7e4 443d
000003c0: 0f42 2ebd 4974 91bc ac6f f5bc 2d04 c73c
000003d0: 3311 913c 185d 7f3c b6a1 8d3c 85e4 75bc
000003e0: 44fa 523c 42f9 10bd 0007 483d 4715 923c
000003f0: 24cf 01bd e082 c93c a17f dcba 8882 17bd

cnn2.bias f4 [12]
0.00020057282 -0.002180085 0.00029829543 -0.00051419146 0.0014529722 -7.480608e-05 0.00094966986 -0.00012388834
6.2048945e-05 -4.948877e-06 0.00014943376 2.1898159e-05
00000000: db50 5239 c2df 0ebb 8964 9c39 ceca 06ba
00000010: a871 be3a 35e1 9cb8 44f3 783a 06e8 01b9
00000020: 4620 8238 880e a6b6 52b1 1c39 f0b1 b737

bn2.weight f4 [12]
1.0158317 1.0092291 0.9656012 0.98290014 1.023071 0.97191644 0.9719102 0.9841342
1.0409187 0.9715275 1.0000609 1.035906
00000000: c606 823f 6b2e 813f a431 773f 589f 7b3f
00000010: fef3 823f 84cf 783f 1bcf 783f 38f0 7b3f
00000020: d33c 853f 07b6 783f ff01 803f 9198 843f

bn2.bias f4 [12]
-0.09939176 0.006792133 -0.057730537 -0.027777264 -0.047070663 -0.025828617 -0.030342335 -0.15990451
-0.08079311 -0.026016356 -0.031477276 -0.13630079
00000000: e88d cbbd 8b90 de3b db76 6cbd 258d e3bc
00000010: 2bcd 40bd 8996 d3bc 7d90 f8bc 02be 23be
00000020: dc76 a5bd 4120 d5bc 51ee 00bd 6f92 0bbe

bn2.running_mean f4 [12]
0.8616932 -0.8170471 0.31862703 1.0557752 0.03545205 -0.20753594 -0.6357299 1.0467497
0.64984566 -0.8972286 0.09214637 0.56859976
00000000: ed97 5c3f 002a 51bf 1523 a33e a423 873f
00000010: 2b36 113d 4d84 54be 32bf 22bf e5fb 853f
00000020: 495c 263f c6b0 65bf 3cb7 bc3d c18f 113f

bn2.running_var f4 [12]
0.5308177 0.49595252 0.8953488 0.57972896 0.4660445 0.7216699 0.9285086 0.62011576
0.49969777 1.1018653 0.64456654 0.64114267
00000000: abe3 073f 7ded fd3e 9435 653f 1e69 143f
00000010: 629d ee3e 5cbf 383f bdb2 6d3f e8bf 1e3f
00000020: 63d8 ff3e ec09 8d3f 5002 253f ed21 243f

cnn4.weight f4 [24, 12, 5, 5]
0.022685375 0.05170334 0.058649607 0.05614282 -0.033122186 -0.004397279 0.056202967 0.028377732
-0.0172462 -0.06391579 0.025919622 -0.044749614 -0.01775624 0.0014959815 -0.063100226 -0.0282775
-0.027457794 0.05840691 -0.0018634709 0.02311761 0.028018558 -0.0005765062 0.02253873 -0.009979629
-0.012620593 -0.034699872 0.01745453 0.028714024 0.014221274 -0.039158225 -0.021815727 0.030237826
0.0036955972 0.062994055 0.050187834 0.047384243 0.013319531 0.07332171 0.07351887 0.042979755
0.010713705 -0.028300269 0.040609825 0.0049738926 0.059628215 -0.024846608 0.023996135 -0.031424552
0.013905877 0.024845466 0.037820302 -0.023380304 -0.025938932 0.04212652 0.027042093 0.040486764
0.061574485 0.06125327 -0.016313758 -0.051481348 0.038630202 0.035010707 -0.010427613 0.024313444
0.015463033 -0.02888167 -0.011916715 0.030360905 0.007404777 0.020794142 0.060715638 0.03483715
-0.037796732 -0.0638478 -0.056597665 -0.041887105 -0.00020056436 -0.044435702 -0.051743727 -0.011263082
0.060496848 -0.015641011 -0.033358626 -0.016404321 0.03176254 0.013981258 -0.043257695 0.006329711
0.0069817617 0.03183207 0.024725528 0.04949434 0.037915267 -0.03249475 -0.064688414 -0.04887851
0.012520707 -0.017883776 -0.06819056 -0.035912212 -0.024692135 -0.014705647 0.083542645 -0.034715727
0.05247984 0.052329488 0.05972646 0.089214295 -0.031732593 0.049248952 0.024458423 -0.0005733579
-0.00440733 0.0832463 0.022525832 -0.015574776 0.05155154 0.04247952 0.014602936 -0.021850707
0.048856277 0.009512495 0.045790855 0.04914655 0.025187038 0.06918154 -0.0060977372 -0.0037004023
0.001907364 -0.046312876 0.02608461 -0.028594784 -0.015416232 -0.018799668 -0.035662103 0.010617072
-0.03328868 0.033298817 -0.04264472 0.016400117 0.053839818 0.038849745 0.03615664 0.04958957
0.032566365 -0.013709265 -0.03484225 0.01563145 0.02671172 -0.06689167 -0.04486271 -0.0656261
0.010778547 -0.021601604 -0.010831142 0.0054116733 0.02163441 -0.045480978 0.014194782 -0.021931736
-0.022942945 0.030847784 0.016619243 -0.01014729 0.031521723 -0.017604582 -0.02049198 0.01985204
-0.044897504 -0.061099906 -0.043138824 -0.023428012 0.03622077 0.036099404 0.038150918 -0.015359064
-0.026903303 0.05624112 -0.003128491 0.020041367 -0.013399915 0.01465122 0.057201345 -0.030883433
-0.026149577 -0.027237222 -0.02908039 0.04782231 0.023188984 -0.038683288 -0.030802226 -0.02953334
0.022398245 0.04854889 -0.027921166 -0.02320086 0.03633876 0.0557113 0.02459459 0.023921164
-0.019753229 -0.01887273 -0.014578834 -0.02003566 -0.00019459089 0.015638549 -0.008711513 0.012075044
0.054785132 0.058330085 -0.017520187 -0.04205115 -0.0036517577 -0.009930978 0.06289989 0.005863003
0.0070091104 -0.0012202807 0.086098336 0.014546974 0.02112399 0.020332944 -0.013254432 0.05364148
0.019061834 -0.015657034 -0.037337497 -0.00015595066 0.0029917897 0.033140216 0.033381894 -0.035494085
-0.010384906 0.039141733 0.049611747 0.019610543 0.038997 0.09267906 0.01409869 0.03744953
-0.017517164 0.024117893 0.010938732 0.021282408 0.022412693 0.0065323 0.05517585 0.041560795
-0.014915143 0.03739914 -0.047934614 0.04425986 0.052172966 -0.03686577 0.02144155 0.04642904
00000000: aed6 b93c e2c6 533d 923a 703d 03f6 653d
00000010: 21ab 07bd 0d17 90bb 1535 663d 6b78 e83c
00000020: e747 8dbc 48e6 82bd 6355 d43c 5f4b 37bd
00000030: 8975 91bc cf14 c43a b13a 81bd 37a6 e7bc
00000040: 2bef e0bc 163c 6f3d b53f f4ba 2461 bd3c
00000050: 2d87 e53c ad20 17ba 25a3 b83c 9981 23bc
00000060: 9bc6 4ebc 7421 0ebd cdfc 8e3c ac39 eb3c
00000070: 5900 693c 6064 20bd e5b6 b2bc 51b5 f73c
00000080: d531 723b 0703 813d c291 4d3d fb15 423d
00000090: 2a3a 5a3c b129 963d 1091 963d 8a0b 303d
000000a0: 8988 2f3c f7d5 e7bc 7d56 263d 09fc a23b
000000b0: b73c 743d 1d8b cbbc 8b93 c43c 08b7 00bd
000000c0: 7ad5 633c b888 cb3c 76e9 1a3d 0d88 bfbc
000000d0: e27d d4bc dc8c 2c3d 6187 dd3c 73d5 253d
000000e0: 8735 7c3d b5e4 7a3d 6ea4 85bc 1bde 52bd
000000f0: b43a 1e3d 6367 0f3d 94d8 2abc fd2c c73c
00000100: a958 7d3c 4199 ecbc 533e 43bc 6fb7 f83c
00000110: c6a3 f23b 7a58 aa3c f6b0 783d 66b1 0e3d
00000120: bfd0 1abd a3c2 82bd f4d2 67bd d091 2bbd
00000130: 964e 52b9 3602 36bd 3bf1 53bd ca88 38bc
00000140: 8bcb 773d 9421 80bc 0ea3 08bd 5b62 86bc
00000150: 7019 023d a511 653c fb2e 31bd 7769 cf3b
00000160: 43c7 e43b 5862 023d 318d ca3c 94ba 4a3d
00000170: 0a4d 1b3d 3719 05bd 5c7b 84bd d534 48bd
00000180: a723 4d3c ff80 92bc 7ea7 8bbd af18 13bd
00000190: 2947 cabc f4ef 70bc 6818 ab3d 1432 0ebd
000001a0: 1af5 563d 7257 563d bca3 743d fcb5 b63d
000001b0: 09fa 01bd 45b9 493d 085d c83c 664d 16ba
000001c0: 5d6b 90bb 097d aa3d 1888 b83c 582d 7fbc
000001d0: b527 533d 01ff 2d3d 2741 6f3c 4100 b3bc
000001e0: 851d 483d 4cda 1b3c 318f 3b3d e54d 493d
000001f0: 0c55 ce3c 0daf 8d3d 87cf c7bb 7382 72bb
00000200: 8400 fa3a 92b2 3dbd 64af d53c 9c3f eabc
00000210: 5d94 7cbc c301 9abc 6d12 12bd 3af3 2d3c
00000220: b659 08bd 5764 083d 3bac 2ebd 8a59 863c
00000230: 2487 5c3d e920 1f3d fc18 143d 6f1e 4b3d
00000240: 4f64 053d d39c 60bc bfb6 0ebd 870d 803c
00000250: 89d2 da3c 80fe 88bd f6c1 37bd fa66 86bd
00000260: 8198 303c d9f5 b0bc 1a75 31bc 6854 b13b
00000270: a53a b13c 434a 3abd 3b91 683c 2faa b3bc
00000280: d8f2 bbbc 7eb4 fc3c 1425 883c d240 26bc
00000290: ec1c 013d 7c37 90bc ccde a7bc bfa0 a23c
000002a0: 72e6 37bd e543 7abd 56b2 30bd 1aec bfbc
000002b0: 3b5c 143d f8dc 133d 2344 1c3d 95a4 7bbc
000002c0: 5164 dcbc 175d 663d 5f07 4dbb cb2d a43c
000002d0: 518b 5bbc ac0b 703c f54b 6a3d 41ff fcbc
000002e0: a337 d6bc 9820 dfbc 003a eebc 54e1 433d
000002f0: d3f6 bd3c 5e72 1ebd f354 fcbc e7ef f1bc
00000300: 867c b73c 33db 463d eeba e4bc bb0f bebc
00000310: f4d7 143d 8831 643d 987a c93c 51f6 c33c
00000320: 86d1 a1bc fc9a 9abc 10dc 6ebc d321 a4bc
00000330: 180b 4cb9 6a1c 803c bcba 0ebc 68d6 453c
00000340: 6066 603d 87eb 6e3d 7f86 8fbc d43d 2cbd
00000350: 5452 6fbb 8ab5 22bc a8d1 803d 6f1e c03b
00000360: aeac e53b d3f1 9fba 5354 b03d 6e56 6e3c
00000370: 380c ad3c 4691 a63c 1e29 59bc 2bb7 5b3d
00000380: 9027 9c3c 2e43 80bc 34ef 18bd b086 23b9
00000390: e711 443b 09be 073d 74bb 083d 3f62 11bd
000003a0: 7425 2abc 1553 203d b035 4b3d 4aa6 a03c
000003b0: 51bb 1f3d 85ce bd3d 31fe 663c ae64 193d
000003c0: 2880 8fbc e392 c53c 5e38 333c 7258 ae3c
000003d0: d39a b73c e70c d63b 1200 623d a73b 2a3d
000003e0: a55e 74bc d72f 193d 1657 44bd d449 353d
000003f0: 52b3 553d 9000 17bd 31a6 af3c 612c 3e3d

cnn4.bias f4 [24]
-0.00015784203 0.00044377777 -0.0002603138 0.0001047431 -8.332574e-05 -2.3321918e-05 -8.8775305e-06 -8.481662e-05
-0.00016239019 0.0001833884 -0.00010427073 -5.3577456e-05 8.851455e-06 0.00010507968 -1.8600222e-05 -5.334698e-05
0.00011701656 -5.981796e-05 9.779332e-05 0.00013574562 1.695455e-05 -7.284746e-05 1.9675244e-05 0.00014337963
00000000: 6682 25b9 d8aa e839 ba7a 88b9 86a9 db38
00000010: 2bbf aeb8 70a3 c3b7 b4f0 14b7 93df b1b8
00000020: 4947 2ab9 f34b 4039 ecab dab8 5bb8 60b8
00000030: b680 1437 395e dc38 ac07 9cb7 e2c0 5fb8
00000040: ca66 f538 0ce5 7ab8 6416 cd38 f056 0e39
00000050: 9e39 8e37 afc5 98b8 440c a537 2d58 1639

bn4.weight f4 [24]
1.0502958 0.95315135 0.9779933 0.96983665 0.9628827 0.94878143 0.9975882 1.0398601
0.95708853 1.0064521 0.96196336 1.0488592 1.0193611 0.96148694 1.00803 1.0348045
0.96683586 0.9624262 1.068296 1.0295054 1.0035135 0.96521187 0.97341526 1.009495
00000000: 1870 863f ba01 743f c55d 7a3f 3747 783f
00000010: 7b7f 763f 57e3 723f f161 7f3f 231a 853f
00000020: c103 753f 6cd3 803f 3b43 763f 0541 863f
00000030: 6d7a 823f 0224 763f 2107 813f 7974 843f
00000040: 8e82 773f 9061 763f ecbd 883f d5c6 833f
00000050: 2173 803f 2018 773f be31 793f 2237 813f

bn4.bias f4 [24]
-0.14780404 -0.046154678 0.006892394 -0.023641083 -0.066097155 -0.062393237 -0.093527615 -0.12615336
-0.019012345 -0.07391238 -0.017625911 -0.12565985 -0.11227615 -0.033996675 -0.095802486 -0.10296573
-0.019698491 -0.037405536 -0.15773436 -0.106413625 -0.08648516 -0.15639666 -0.009221753 -0.06142668
00000000: f159 17be b00c 3dbd 97d9 e13b f2aa c1bc
00000010: f25d 87bd 0d90 7fbd 688b bfbd 592e 01be
00000020: c7bf 9bbc 605f 97bd 3764 90bc faac 00be
00000030: 0af1 e5bd 1940 0bbd 1834 c4bd b2df d2bd
00000040: bb5e a1bc 8c36 19bd 1e85 21be 63ef d9bd
00000050: 221f b1bd 7226 20be d616 17bc 8b9a 7bbd

bn4.running_mean f4 [24]
1.037958 -0.13196161 -0.86039454 -1.0064986 -0.41980445 0.04436582 0.6337732 0.7952337
-0.85665196 0.40151283 -0.5426651 0.89595604 0.35610324 -1.5112412 0.4781977 0.45298648
-0.3022968 -1.2237133 1.0407236 0.9156214 1.5716403 0.98694044 -0.9650324 0.3834448
00000000: cfdb 843f f220 07be d142 5cbf f2d4 80bf
00000010: 9cf0 d6be efb8 353d f63e 223f 7094 4b3f
00000020: 8b4d 5bbf 1793 cd3e 1aec 0abf 605d 653f
00000030: 2a53 b63e 5a70 c1bf 54d6 f43e d8ed e73e
00000040: a5c6 9abe a3a2 9cbf 6e36 853f 2a66 6a3f
00000050: 822b c93f 21a8 7c3f 5d0c 77bf e052 c43e

bn4.running_var f4 [24]
1.1665299 0.9459011 2.1618502 1.4605602 0.7280244 0.90243334 1.1489697 1.1142727
2.2806704 0.8017803 1.5651418 1.017046 0.83306843 2.6542752 0.6994173 0.67529494
1.1891696 2.0846784 1.1796229 1.710055 1.7086385 1.5875759 2.6931043 0.83171827
00000000: da50 953f 9326 723f c15b 0a40 a3f3 ba3f
00000010: cf5f 3a3f df05 673f 7011 933f 7da0 8e3f
00000020: 81f6 1140 7941 4d3f 9156 c83f 902e 823f
00000030: f943 553f a5df 2940 030d 333f 21e0 2c3f
00000040: b636 983f 5f6b 0540 e2fd 963f 15e3 da3f
00000050: abb4 da3f b035 cb3f d25b 2c40 7deb 543f

cnn5.weight f4 [24, 24, 5, 5]
0.00217659 0.01864437 -0.004633958 -0.010391364 -0.012809134 0.018803637 0.013611562 0.00054131926
0.010161255 0.012400752 0.00810284 0.003752119 -0.06282489 -0.033141807 -0.010124634 -0.037535354
-0.034836285 -0.001081767 -0.054925434 0.027498102 0.023214022 -0.03646533 -0.0033160837 0.011872044
-0.004926994 -0.03427726 0.00052037317 0.032407623 -0.027654296 -0.0347025 0.016531982 -0.022046156
0.008233475 -0.022491112 -0.007138611 -0.014867096 -0.006366055 -0.026858468 -0.05057069 -0.018719194
-0.038781285 0.015520317 0.017841406 -0.020418232 -0.028994307 -0.027800877 -0.033673845 0.017124312
-0.016915532 -0.047584396 0.008312408 -0.033632386 0.030846898 0.009802323 -0.008493833 -0.0023108448
-0.03280324 -0.0024824454 -0.02459622 0.027411379 0.009174795 0.01066342 0.020325154 -0.05347593
-0.025841488 0.034638382 -0.023747843 -0.051038936 -0.03446979 -0.042714804 0.025068305 -0.048759557
-0.05092056 -0.023917234 0.022423448 -0.007353577 0.00745437 -0.0057275407 0.01671822 -0.03187462
0.016202554 0.052061044 0.029499613 0.043757536 0.027869921 0.043029524 0.03495798 0.012448911
0.022094414 -0.0016800645 0.0065306085 0.026555482 0.016537262 0.0037642692 0.02743361 -0.021180544
0.04771193 -0.0034954336 0.0069516245 0.017558748 -0.027031567 0.025953945 -0.006007434 -0.004191005
0.010578525 0.005054968 -0.016409984 -0.054946207 -0.0005736911 0.028785845 0.033458065 -0.0046542287
-0.022961998 -0.044528503 0.02313704 -0.0034994495 0.0035199027 -0.04406443 0.010220071 -0.021249983
0.033440042 0.018725803 -0.03846037 -0.02754854 0.022540426 -0.011165773 -0.047603432 -0.01953805
0.009223639 0.0023875462 -0.038419064 0.00564102 -0.023099212 -0.03362901 0.0030030091 0.02537712
-0.008006487 0.0131996125 -0.013736789 -0.015331641 -0.03098357 0.008360708 0.014760858 0.026422324
-0.0031037126 0.02391258 -0.026216624 0.015309528 0.028306982 0.018198654 -0.004869775 -0.00012822676
0.012379509 0.032777723 0.05424059 0.025228452 0.018892756 -0.052582297 -0.028567968 -0.029695338
0.0282722 -0.014962689 -0.040634234 -0.010659386 0.016211322 -0.017631965 -0.05159129 -0.03983588
-0.039454587 -0.017171456 -0.025637487 -0.003828848 -0.044748686 0.017287923 0.029979263 -0.0236096
0.020905638 -0.04240591 0.025780043 0.0032122831 0.032728393 -0.019372586 0.01723681 -0.04478627
0.02013019 0.013963463 -0.008438136 -0.0057626856 0.0057089576 -0.013728876 0.040118847 -0.027421298
-0.00917612 -0.030339476 -0.0091922805 0.012129541 0.033955082 -0.033005927 -0.008414911 -0.019752653
-0.03168658 -0.018737389 0.01219328 0.008840849 0.018964093 -0.024185412 0.017061297 -0.054998025
-0.024610376 0.022902228 -0.0078296885 -0.039018463 -0.013406491 0.010003343 -0.06372142 0.012796545
-0.048865154 -0.03580276 -0.019391159 -0.010537912 0.0028050556 0.004003558 -0.0046112817 -0.015954297
-0.0027258995 -0.0232398 -0.019390833 0.00879381 -0.044986527 0.005819963 -0.033661924 -0.0049601784
-0.012628067 -0.026407534 0.010693456 0.03237599 -0.012992565 -0.062626295 0.008591448 -0.02845378
-0.038202353 -0.034948573 -0.008627249 -0.0026426886 -0.053166784 0.0014838768 -0.021108633 -0.050006803
-0.039630286 -0.020750383 0.027604949 0.029168114 -0.038488712 -0.0009784726 -0.016641434 -0.019833477
00000000: 1fa5 0e3b 14bc 983c 75d8 97bb 8a40 2abc
00000010: 67dd 51bc 160a 9a3c 0703 5f3c 52e7 0d3a
00000020: 647b 263c 862c 4b3c c6c1 043c 1ce6 753b
00000030: 56aa 80bd b4bf 07bd cbe1 25bc acbe 19bd
00000040: 7eb0 0ebd 14ca 8dba 7ef9 60bd b343 e13c
00000050: 552b be3c ab5c 15bd a752 59bb f682 423c
00000060: 9f72 a1bb 5066 0cbd a769 083a dbbd 043d
00000070: 438b e2bc 3524 0ebd 146e 873c 249a b4bc
00000080: b2e5 063c 483f b8bc 02eb e9bb 1f95 73bc
00000090: 579a d0bb 4a06 dcbc 3623 4fbd ff58 99bc
000000a0: 20d9 1ebd ed48 7e3c 2428 923c 2344 a7bc
000000b0: 7885 edbc aabe e3bc 96ed 09bd 4948 8c3c
000000c0: 7192 8abc dbe7 42bd c430 083c 1dc2 09bd
000000d0: a2b2 fc3c ec99 203c b829 0bbc 8b71 17bb
000000e0: b15c 06bd 86b0 22bb 037e c9bc d48d e03c
000000f0: e151 163c a0b5 2e3c f080 a63c 9409 5bbd
00000100: 87b1 d3bc fae0 0d3d d68a c2bc 340e 51bd
00000110: 3230 0dbd b8f5 2ebd 0c5c cd3c 1ab8 47bd
00000120: 1492 50bd 13ee c3bc 61b1 b73c 46f6 f0bb
00000130: ca43 f43b 18ae bbbb a6f4 883c f68e 02bd
00000140: 38bb 843c f63d 553d 2ca9 f13c 1a3b 333d
00000150: 764f e43c ba3f 303d 1930 0f3d 84f6 4b3c
00000160: 58ff b43c 9c35 dcba b7fe d53b e28a d93c
00000170: 2779 873c f5b1 763b 73bc e03c d282 adbc
00000180: 966d 433d a513 65bb 74ca e33b 5dd7 8f3c
00000190: 4e71 ddbc 5e9d d43c 02da c4bb b354 89bb
000001a0: 8d51 2d3c 25a4 a53b 3b6e 86bc 460f 61bd
000001b0: c263 16ba 4bd0 eb3c 530b 093d 8082 98bb
000001c0: cd1a bcbc 8563 36bd e489 bd3c 0557 65bb
000001d0: 2bae 663b e77c 34bd 1672 273c 7214 aebc
000001e0: 6df8 083d db66 993c 9f88 1dbd 7aad e1bc
000001f0: b3a6 b83c a5f0 36bc d1fb 42bd 430e a0bc
00000200: bf1e 173c 6178 1c3b 4f5d 1dbd 4ed8 b83b
00000210: 8f3a bdbc 93be 09bd 22ce 443b aee3 cf3c
00000220: a42d 03bc 3043 583c 4510 61bc 9031 7bbc
00000230: 41d1 fdbc 5afb 083c 87d7 713c a173 d83c
00000240: a867 4bbb 51e4 c33c 3fc4 d6bc d1d4 7a3c
00000250: 0be4 e73c 5815 953c a292 9fbb 9c74 06b9
00000260: 6dd3 4a3c ef41 063d 622b 5e3d e6ab ce3c
00000270: fbc4 9a3c 8960 57bd 5f07 eabc a343 f3bc
00000280: 1a9b e73c 1126 75bc 1570 26bd b5a4 2ebc
00000290: 9bcd 843c e970 90bc 6351 53bd f32a 23bd
000002a0: 229b 21bd 27ab 8cbc b505 d2bc 69ed 7abb
000002b0: 664a 37bd 679f 8d3c 1297 f53c eb68 c1bc
000002c0: 4d42 ab3c d2b1 2dbd ab30 d33c 2b85 523b
000002d0: 350e 063d 42b3 9ebc 3634 8d3c cf71 37bd
000002e0: 11e8 a43c 02c7 643c 1c40 0abc e9d4 bcbb
000002f0: 3512 bb3b 14ef 60bc a953 243d a1a2 e0bc
00000300: 7057 16bc 7e8a f8bc 389b 16bc fbba 463c
00000310: 7c14 0b3d 3931 07bd b2de 09bc 51d0 a1bc
00000320: cac9 01bd 277f 99bc 53c6 473c 35d9 103c
00000330: 965a 9b3c 7c20 c6bc 22c4 8b3c 9c45 61bd
00000340: b39b c9bc 749d bb3c 1848 00bc d3d1 1fbd
00000350: e6a6 5bbc 10e5 233c 6080 82bd 9aa8 513c
00000360: d426 48bd eaa5 12bd 35da 9ebc 35a7 2cbc
00000370: 06d5 373b 4730 833b 3c1a 97bb 96b2 82bc
00000380: 01a5 32bb 6561 bebc 86d9 9ebc ea13 103c
00000390: cb43 38bd 63b5 be3b 16e1 09bd fe88 a2bb
000003a0: f4e5 4ebc 9d54 d8bc 9b33 2f3c b09c 043d
000003b0: c4de 54bc 3742 80bd 25c3 0c3c e717 e9bc
000003c0: 127a 1cbd 3c26 0fbd 4e59 0dbc f530 2dbb
000003d0: 6ac5 59bd a57e c23a 03ec acbc efd3 4cbd
000003e0: 5e53 22bd b5fc a9bc c623 e23c f8f1 ee3c
000003f0: 57a6 1dbd 1840 80ba 9e53 88bc d179 a2bc

cnn5.bias f4 [24]
-0.0005119304 -0.00016998568 -0.00012221403 -0.0003704908 5.587095e-05 -0.00010110832 0.00030010458 -8.521069e-05
3.8793572e-05 0.00024898717 2.519863e-05 -0.00021618919 2.3437817e-05 -0.00027653435 -6.6792265e-05 -0.00015615534
-6.50069e-05 -0.00012303259 -0.00016383894 3.4331613e-05 6.932809e-05 0.00030344696 -1.5127457e-06 0.00010249346
00000000: 1133 06ba 2f3e 32b9 9426 00b9 6f3e c2b9
00000010: fa56 6a38 1e0a d4b8 5b57 9d39 24b3 b2b8
00000020: 48b6 2238 7e8a 8239 a561 d337 d8b0 62b9
00000030: 549c c437 d0fb 90b9 d312 8cb8 a1bd 23b9
00000040: 5054 88b8 4f02 01b9 2ecc 2bb9 4aff 0f38
00000050: 3c64 9138 f617 9f39 8c09 cbb5 c2f1 d638

bn5.weight f4 [24]
0.83442795 0.83869267 0.8504345 0.8510384 0.83226985 0.82680833 0.8405159 0.8390998
0.8184049 0.8297361 0.8510926 0.8297382 0.8321515 0.869381 0.8401847 0.83786315
0.84767073 0.8581421 0.82400864 0.8033914 0.8398043 0.8634429 0.8138621 0.8505941
00000000: 129d 553f 90b4 563f 13b6 593f a7dd 593f
00000010: a30f 553f b6a9 533f 0d2c 573f 3fcf 563f
00000020: fc82 513f 9669 543f 34e1 593f b969 543f
00000030: e107 553f c18f 5e3f 5816 573f 337e 563f
00000040: f300 593f 33af 5b3f 3bf2 523f 0fab 4d3f
00000050: 6afd 563f 980a 5d3f 4459 503f 89c0 593f

bn5.bias f4 [24]
-0.18653396 -0.1828712 -0.16396096 -0.16150704 -0.19983067 -0.1902318 -0.14196661 -0.16601714
-0.20391014 -0.17186671 -0.14951278 -0.17665417 -0.19320121 -0.14156671 -0.17461886 -0.18243437
-0.16441417 -0.15545088 -0.20103179 -0.2168592 -0.17781644 -0.14231007 -0.21015193 -0.16014013
00000000: c202 3fbe 9642 3bbe 62e5 27be 1a62 25be
00000010: 69a0 4cbe 20cc 42be b25f 11be 6600 2abe
00000020: d2cd 50be d4fd 2fbe e119 19be d5e4 34be
00000030: 8ad6 45be ddf6 10be 49cf 32be 13d0 3abe
00000040: 305c 28be 842e 1fbe 47db 4dbe 5710 5ebe
00000050: 8315 36be bbb9 11be 1132 57be c6fb 23be

bn5.running_mean f4 [24]
-1.5092006 -1.6863735 -1.0036143 -1.8368113 -1.245968 -1.0926524 -0.034671918 -0.8684577
-1.2094979 -0.6699509 -0.6896903 -0.47018126 -1.4363437 -0.40387607 -0.8995056 -1.3656359
-1.5317835 -0.93827504 -1.3318635 -0.76115817 -1.5390736 -0.7594868 -1.1194264 -0.6899885
00000000: 7c2d c1bf 16db d7bf 6f76 80bf a21c ebbf
00000010: e17b 9fbf 09dc 8bbf 2404 0ebd 3e53 5ebf
00000020: d4d0 9abf e781 2bbf 8b8f 30bf 99bb f0be
00000030: 1cda b7bf d8c8 cebe 0046 66bf 28cd aebf
00000040: 7b11 c4bf cb32 70bf 817a aabf 43db 42bf
00000050: 5d00 c5bf ba6d 42bf 5d49 8fbf 16a3 30bf

bn5.running_var f4 [24]
3.2001746 3.598503 4.5825543 3.6334991 2.7154706 5.051865 3.6934993 3.0965366
5.896072 3.6874433 4.330347 2.32718 3.2253578 6.0125465 4.382422 6.6996484
6.8994694 3.6430137 5.7699656 3.0346591 4.6770797 6.0306544 3.7838862 2.5055962
00000000: a9cf 4c40 e04d 6640 49a4 9240 408b 6840
00000010: 45ca 2d40 e1a8 a140 4b62 6c40 a82d 4640
00000020: 9fac bc40 12ff 6b40 3492 8a40 84f0 1440
00000030: 436c 4e40 c866 c040 cd3c 8c40 8563 d640
00000040: 74c8 dc40 2327 6940 8fa3 b840 db37 4240
00000050: a3aa 9540 1ffb c040 312b 7240 b05b 2040

fc1.weight f4 [9, 8664]
0.001692076 -2.8817762e-05 -0.018816967 0.002820176 -0.006858539 -0.007970434 -0.005663728 0.016492529
-0.005007585 0.015464163 0.0033829845 -0.014763951 0.010798207 -0.0063224165 -0.0012669544 -0.010187943
-0.015474119 -0.009368137 -0.013018115 -0.019802192 0.0049100886 -0.00575511 -0.00200938 -0.01572479
0.0066721034 0.014390565 -2.2623532e-05 0.014489123 0.009501612 0.0002634041 -0.011530201 -0.006729424
0.0046276706 -0.02523713 -0.0212639 -0.0015954054 -0.02040338 -0.0053080455 -0.015130309 -0.01895602
-0.011337337 -0.0076413276 -0.0004667622 0.011287103 0.0067706704 0.018876541 0.017856222 0.013979329
0.009815957 -0.010498205 -0.018623665 -0.012104514 0.0023982737 -0.025048504 -0.021063179 -0.011165031
-0.007873082 0.00082384597 0.0054641506 0.0007063366 -0.014321628 -0.018850774 0.0028912402 0.004363877
-0.006076401 0.0027685452 -0.0024434563 -0.017792376 -0.0011649001 -0.010420353 -0.009024831 -0.0138195185
-0.012519751 -0.014704106 -0.008514303 -0.0149323335 -0.011676578 -0.014786957 -0.005691111 -0.008537664
-0.004288638 -0.002337032 -0.0020136375 0.0033287979 0.0021474867 -0.008012565 -0.012640364 -0.020465093
0.0015056875 -0.018040301 -0.008702257 -0.0016769423 -0.01351929 -0.02112552 -0.018330783 -0.03342545
-0.024464743 -0.00066910725 0.0105261225 0.00029401443 -0.00031467108 0.006008713 -0.0123007875 -0.01079052
-0.019003969 -0.010495464 -0.0035728947 0.0008304502 -0.015499605 -0.013112623 -0.01809055 -0.017558517
-0.012609593 -0.009532168 -0.0043149027 0.002240639 -0.0033955763 0.009681038 -0.0006844685 -0.025628328
-0.016919013 -0.007540131 0.0017987634 -0.002910076 0.0042776708 -0.010910194 -0.0170566 -0.013786267
-0.0022161189 -0.0097619025 -0.014631078 -0.0077525782 -0.0014115112 -0.013043246 0.011790939 0.016266538
-0.0036337073 0.005154595 -0.0031929985 -0.00564003 -0.011567647 -0.004515521 0.0102687 -0.005717933
-0.0040025897 -0.017975135 -0.00022415169 -0.011099773 0.006075553 -0.0064629926 0.008462323 0.009998577
-0.0076662623 0.005943155 0.0155012235 0.023186965 -0.0043989345 0.013754821 -0.014975578 -0.013995678
0.0011375898 0.011074129 0.0030292396 0.0008073642 -0.0017696175 -0.025152257 -0.012759169 -0.008945722
-0.009439412 0.0023860408 0.0010945596 0.0032928754 0.013622198 0.005008604 0.010706917 0.0017631986
-0.0008738502 0.00442205 -0.009345122 -0.0016915255 -0.0023167229 -0.006046428 0.0036117001 -0.03147603
-0.008208319 -0.017987955 -0.0018303103 0.00034096494 -0.010706181 -0.0077715227 -0.010117069 0.013560942
0.009611819 0.010503516 -0.0076519977 0.00041436485 0.0019906736 0.0029259913 -0.0054749446 -0.0068010245
0.0067283134 0.0033086282 -0.024096766 -0.010429957 -0.011455544 -0.0038157871 0.009059609 -0.00023914731
-0.011204563 -0.013516068 0.0049605076 0.005998526 -0.016283305 -0.009248201 -0.018560337 0.008767889
-0.0026248877 -0.0006836066 -0.008108464 0.0069870884 0.013119102 0.004281751 -0.0028841682 -0.0045998967
-0.011148564 0.0064883167 -0.0017599716 0.001269718 0.015702764 0.0067969514 -0.00042604996 -0.01584856
0.0033134972 -0.0016359945 0.0023895118 0.0071096537 -0.001412617 -0.010397749 0.00091443065 0.00590022
0.00895097 0.004375314 0.011686661 0.002701937 0.004959926 0.011852851 -0.00518617 -0.0043054144
-0.001246262 -0.013012242 -0.0034640743 -0.0077371285 -0.002602808 0.0031972001 0.009385555 -0.013952556
00000000: a6c8 dd3a acbd f1b7 0a26 9abc b4d2 383b
00000010: 98bd e0bb 6c96 02bc cb96 b9bb 571b 873c
00000020: ab16 a4bb 675d 7d3c 10b5 5d3b 80e4 71bc
00000030: f6ea 303c 462c cfbb ef0f a6ba 54eb 26bc
00000040: 2987 7dbc d17c 19bc ef49 55bc 3538 a2bc
00000050: cfe4 a03b 5d95 bcbb cdaf 03bb 46d1 80bc
00000060: a9a1 da3b 68c6 6b3c aac7 bdb7 c963 6d3c
00000070: a6ac 1b3c 8019 8a39 2be9 3cbc 8082 dcbb
00000080: b7a3 973b 19be cebc a131 aebc ec1c d1ba
00000090: fd24 a7bc 1def adbb 1ee5 77bc a849 9bbc
000000a0: 3dc0 39bc 1a64 fabb c3b7 f4b9 8bed 383c
000000b0: 80dc dd3b faa2 9a3c 3647 923c 8e09 653c
000000c0: 1cd3 203c aa00 2cbc a890 98bc 0352 46bc
000000d0: 5b2c 1d3b 8532 cdbc b08c acbc 89ed 36bc
000000e0: 19fe 00bc 5ef7 573a 9e0c b33b 7229 393a
000000f0: 43a5 6abc f06c 9abc f67a 3d3b dafe 8e3b
00000100: 8c1c c7bb 7b70 353b 6522 20bb 51c1 91bc
00000110: 90af 98ba 21ba 2abc e2dc 13bc 436b 62bc
00000120: a41f 4dbc 7ee9 70bc 937f 0bbc bfa6 74bc
00000130: 1e4f 3fbc fe44 72bc 807c babb 8fe1 0bbc
00000140: b487 8cbb e428 19bb 3bf7 03bb f627 5a3b
00000150: d9bc 0c3b 2247 03bc 8719 4fbc 69a6 a7bc
00000160: 7d5a c53a 41c9 93bc e993 0ebc d9cc dbba
00000170: 0380 5dbc 6d0f adbc 702a 96bc 20e9 08bd
00000180: 496a c8bc 0767 2fba c275 2c3c f325 9a39
00000190: 70fa a4b9 bde4 c43b 3e89 49bc b9ca 30bc
000001a0: 36ae 9bbc 2bf5 2bbc 3a27 6abb 92b2 593a
000001b0: 0ef2 7dbc 54d6 56bc a232 94bc e1d6 8fbc
000001c0: 7798 4ebc cf2c 1cbc 0764 8dbb afd7 123b
000001d0: 5188 5ebb 379d 1e3c e76d 33ba 80f2 d1bc
000001e0: be99 8abc 3413 f7bb 7cc4 eb3a f9b6 3ebb
000001f0: b42b 8c3b acc0 32bc 48ba 8bbc cbdf 61bc
00000200: 4e3c 11bb 63f0 1fbc 30b7 6fbc 5709 febb
00000210: 7502 b9ba 57b3 55bc c82e 413c 6741 853c
00000220: 7e23 6ebb e0e7 a83b a041 51bb 00d0 b8bb
00000230: 3a86 3dbc f0f6 93bb 0d3e 283c 805d bbbb
00000240: 2828 83bb 9740 93bc 430a 6bb9 d3db 35bc
00000250: 6f15 c73b 83c7 d3bb 8ea5 0a3c 12d1 233c
00000260: 4535 fbbb ccbe c23b d8f8 7d3c 97f2 bd3c
00000270: f024 90bb e75b 613c 205c 75bc 214e 65bc
00000280: 2e1b 953a 4370 353c 3586 463b 4ba5 533a
00000290: 83f2 e7ba 1b0c cebc d50b 51bc 1491 12bc
000002a0: c3a7 1abc 1f5f 1c3b 5377 8f3a 48cd 573b
000002b0: a42f 5f3c 371f a43b 116c 2f3c 211b e73a
000002c0: 1813 65ba d8e6 903b 481c 19bc 2db6 ddba
000002d0: 29d4 17bb 1d21 c6bb 46b2 6c3b 02ed 00bd
000002e0: 2f7c 06bc 7a5b 93bc 06e7 efba 8ac3 b239
000002f0: fa68 2fbc 42a8 febb 10c2 25bc b72e 5e3c
00000300: e47a 1d3c f016 2c3c 9cbd fabb 1c3f d939
00000310: f675 023b fdc1 3f3b 2a67 b3bb 21db debb
00000320: 2f79 dc3b 92d5 583b 9566 c5bc 69e2 2abc
00000330: 09b0 3bbc 4912 7abb c16e 143c 9ec3 7ab9
00000340: 5893 37bc 8072 5dbc c18b a23b 488f c43b
00000350: 9164 85bc c485 17bc d90b 98bc 31a7 0f3c
00000360: 4f06 2cbb 1034 33ba 5dd9 04bc f2f3 e43b
00000370: 81f1 563c ee4d 8c3b 5004 3dbb bbba 96bb
00000380: 77a8 36bc f29b d43b d9ae e6ba ab6c a63a
00000390: 15a3 803c f6b8 de3b 755f dfb9 d7d4 81bc
000003a0: 4227 593b de6e d6ba 5b99 1c3b 19f8 e83b
000003b0: 9027 b9ba 525b 2abc 67b6 6f3a a256 c13b
000003c0: 17a7 123c cb5e 8f3b 6979 3f3c fb12 313b
000003d0: e086 a23b 7632 423c bff0 a9bb 6f14 8dbb
000003e0: 9d59 a3ba 4c31 55bc 8605 63bb bd87 fdbb
000003f0: df93 2abb 1e88 513b dfc5 193c 4399 64bc

fc1.bias f4 [9]
-0.01338196 -0.001510358 -0.004299419 0.008592506 0.008363421 -0.0017627656 0.0014604584 -0.010071311
-0.008200761
00000000: 0240 5bbc 34f7 c5ba 24e2 8cbb 95c7 0c3c
00000010: bb06 093c 990c e7ba da6c bf3a 2402 25bc
00000020: 7c5c 06bc
